…
        "outputId": "0424bad0-29c4-4745-ce45-279b79818e2e"
      },
      "source": [
        "vgg16 = creat_model()\r\n",
        "vgg16.summary()"
      ],
      "execution_count": null,
      "outputs": [
        {
          "output_type": "stream",
          "text": [
            "Model: \"sequential\"\n",
            "_________________________________________________________________\n",
            "Layer (type)                 Output Shape              Param #   \n",
            "=================================================================\n",
            "conv2d (Conv2D)              (None, 150, 150, 64)      1792      \n",
            "_________________________________________________________________\n",
            "conv2d_1 (Conv2D)            (None, 150, 150, 64)      36928     \n",
            "_________________________________________________________________\n",
            "max_pooling2d (MaxPooling2D) (None, 75, 75, 64)        0         \n",
            "_________________________________________________________________\n",
            "dropout (Dropout)            (None, 75, 75, 64)        0         \n",
            "_________________________________________________________________\n",
            "conv2d_2 (Conv2D)            (None, 75, 75, 128)       73856     \n",
            "_________________________________________________________________\n",
            "conv2d_3 (Conv2D)            (None, 75, 75, 128)       147584    \n",
            "_________________________________________________________________\n",
            "max_pooling2d_1 (MaxPooling2 (None, 37, 37, 128)       0         \n",
            "_________________________________________________________________\n",
            "dropout_1 (Dropout)          (None, 37, 37, 128)       0         \n",
            "_________________________________________________________________\n",
            "conv2d_4 (Conv2D)            (None, 37, 37, 256)       295168    \n",
            "_________________________________________________________________\n",
            "conv2d_5 (Conv2D)            (None, 37, 37, 256)       590080    \n",
            "_________________________________________________________________\n",
            "conv2d_6 (Conv2D)            (None, 37, 37, 256)       590080    \n",
            "_________________________________________________________________\n",
            "max_pooling2d_2 (MaxPooling2 (None, 18, 18, 256)       0         \n",
            "_________________________________________________________________\n",
            "dropout_2 (Dropout)          (None, 18, 18, 256)       0         \n",
            "_________________________________________________________________\n",
            "conv2d_7 (Conv2D)            (None, 18, 18, 512)       1180160   \n",
            "_________________________________________________________________\n",
            "conv2d_8 (Conv2D)            (None, 18, 18, 512)       2359808   \n",
            "_________________________________________________________________\n",
            "conv2d_9 (Conv2D)            (None, 18, 18, 512)       2359808   \n",
            "_________________________________________________________________\n",
            "max_pooling2d_3 (MaxPooling2 (None, 9, 9, 512)         0         \n",
            "_________________________________________________________________\n",
            "dropout_3 (Dropout)          (None, 9, 9, 512)         0         \n",
            "_________________________________________________________________\n",
            "conv2d_10 (Conv2D)           (None, 7, 7, 512)         2359808   \n",
            "_________________________________________________________________\n",
            "conv2d_11 (Conv2D)           (None, 5, 5, 512)         2359808   \n",
            "_________________________________________________________________\n",
            "conv2d_12 (Conv2D)           (None, 3, 3, 512)         2359808   \n",
            "_________________________________________________________________\n",
            "max_pooling2d_4 (MaxPooling2 (None, 1, 1, 512)         0         \n",
            "_________________________________________________________________\n",
            "dropout_4 (Dropout)          (None, 1, 1, 512)         0         \n",
            "_________________________________________________________________\n",
            "flatten (Flatten)            (None, 512)               0         \n",
            "_________________________________________________________________\n",
            "dense (Dense)                (None, 4096)              2101248   \n",
            "_________________________________________________________________\n",
            "dense_1 (Dense)              (None, 4096)              16781312  \n",
            "_________________________________________________________________\n",
            "dense_2 (Dense)              (None, 4096)              16781312  \n",
            "_________________________________________________________________\n",
            "dense_3 (Dense)              (None, 6)                 24582     \n",
            "=================================================================\n",
            "Total params: 50,403,142\n",
            "Trainable params: 50,403,142\n",
            "Non-trainable params: 0\n",
            "_________________________________________________________________\n"
          ],
          "name": "stdout"
        }
      ]
    },
    {
      "cell_type": "code",
…
